=======================================================================================================================================
Layer (type:depth-idx)                                       Input Shape               Output Shape              Param #
=======================================================================================================================================
STDAN_RAFT_Stack                                             [1, 5, 3, 256, 256]       [1, 2, 2, 64, 64]         --
├─STDAN_RAFT: 1-1                                            [1, 3, 3, 256, 256]       [1, 3, 256, 256]          --
│    └─Sequential: 2-1                                       [3, 3, 256, 256]          [3, 32, 256, 256]         56,384
│    └─Sequential: 2-2                                       [3, 32, 256, 256]         [3, 64, 128, 128]         240,064
│    └─Sequential: 2-3                                       [3, 64, 128, 128]         [3, 128, 64, 64]          959,360
│    └─RAFT: 2-4                                             [2, 6, 256, 256]          [256, 256, 2]             5,257,536
│    └─RAFT: 2-5                                             [2, 6, 256, 256]          [256, 256, 2]             (recursive)
│    └─DeformableAttnBlock: 2-6                              [1, 3, 128, 64, 64]       [1, 3, 128, 64, 64]       4,066,096
│    └─DeformableAttnBlock_FUSION: 2-7                       [1, 3, 128, 64, 64]       [1, 128, 64, 64]          5,064,112
│    └─Sequential: 2-8                                       [1, 128, 64, 64]          [1, 64, 128, 128]         2,532,160
│    └─Sequential: 2-9                                       [1, 64, 128, 128]         [1, 32, 256, 256]         633,248
│    └─Sequential: 2-10                                      [1, 32, 256, 256]         [1, 3, 256, 256]          156,195
├─STDAN_RAFT: 1-2                                            [1, 3, 3, 256, 256]       [1, 3, 256, 256]          (recursive)
│    └─Sequential: 2-11                                      [3, 3, 256, 256]          [3, 32, 256, 256]         (recursive)
│    └─Sequential: 2-12                                      [3, 32, 256, 256]         [3, 64, 128, 128]         (recursive)
│    └─Sequential: 2-13                                      [3, 64, 128, 128]         [3, 128, 64, 64]          (recursive)
…
