========================================================================================================================
Layer (type:depth-idx)                        Input Shape               Output Shape              Param #
========================================================================================================================
STDAN_Stack                                   [1, 5, 3, 256, 256]       [1, 2, 2, 64, 64]         --
├─STDAN: 1-1                                  [1, 3, 3, 256, 256]       [1, 3, 256, 256]          --
│    └─Sequential: 2-1                        [3, 3, 256, 256]          [3, 32, 256, 256]         56,384
│    └─Sequential: 2-2                        [3, 32, 256, 256]         [3, 64, 128, 128]         240,064
│    └─Sequential: 2-3                        [3, 64, 128, 128]         [3, 128, 64, 64]          959,360
│    └─Sequential: 2-4                        [2, 256, 64, 64]          [2, 16, 64, 64]           129,120
│    └─Conv2d: 2-5                            [2, 16, 64, 64]           [2, 2, 64, 64]            290
│    └─Sequential: 2-6                        [2, 256, 64, 64]          [2, 16, 64, 64]           (recursive)
│    └─Conv2d: 2-7                            [2, 16, 64, 64]           [2, 2, 64, 64]            (recursive)
│    └─DeformableAttnBlock: 2-8               [1, 3, 128, 64, 64]       [1, 3, 128, 64, 64]       4,066,096
│    └─DeformableAttnBlock_FUSION: 2-9        [1, 3, 128, 64, 64]       [1, 128, 64, 64]          5,064,112
│    └─Sequential: 2-10                       [1, 128, 64, 64]          [1, 64, 128, 128]         2,532,160
│    └─Sequential: 2-11                       [1, 64, 128, 128]         [1, 32, 256, 256]         633,248
│    └─Sequential: 2-12                       [1, 32, 256, 256]         [1, 3, 256, 256]          156,195
├─STDAN: 1-2                                  [1, 3, 3, 256, 256]       [1, 3, 256, 256]          (recursive)
│    └─Sequential: 2-13                       [3, 3, 256, 256]          [3, 32, 256, 256]         (recursive)
│    └─Sequential: 2-14                       [3, 32, 256, 256]         [3, 64, 128, 128]         (recursive)
│    └─Sequential: 2-15                       [3, 64, 128, 128]         [3, 128, 64, 64]          (recursive)
…
